model/model.pth (torch, 17609 bytes, 4 tensors)

linear1.weight f4 [256, 11]
-0.20386468 0.021004861 -0.11196493 -0.1691093 -0.12423905 0.28490257 0.2095682 0.11952897
-0.13656095 -0.30612254 -0.12383693 0.2917175 0.25752398 0.49414584 0.24756916 0.15281394
-0.11588724 0.26603952 -0.042582475 -0.1489946 -0.26338822 0.12940481 0.2564273 0.29925326
0.09930317 0.24698415 0.051324118 0.15279603 -0.04930529 0.07901902 -0.32215923 -0.23225999
0.16450873 0.5366745 0.2878089 0.26557758 0.26253098 0.16360748 -0.073028594 -0.025246646
0.19557151 -0.15097253 -0.31689295 0.13100345 -0.38521853 0.40595308 -0.38171163 0.32489857
0.23103905 0.08077114 0.38105714 0.21167818 0.11426452 0.020158786 0.24895597 0.39108923
-0.11665697 0.40272507 -0.20267314 0.0060019637 0.017191574 0.19523706 0.052519903 -0.028203707
-0.19176984 0.13632397 -0.21288817 0.36029956 0.13964593 0.21906377 0.15065654 -0.092427745
0.012875047 -0.17531836 0.0048208055 -0.061137453 -0.1661822 -0.49621198 0.34028292 -0.18572877
-0.12907371 -0.069044 -0.19223958 0.050594065 0.0034027442 0.113582514 0.070440926 0.17170009
0.5098291 0.21223429 0.47456494 0.031067336 0.15635592 0.25054997 0.09902493 -0.14564481
0.16852319 -0.22109176 -0.02724524 -0.13242619 -0.27826154 0.28737834 0.3135044 0.13796899
-0.158732 -0.27180225 -0.27592093 -0.2272831 0.25730187 -0.25248823 0.2006299 0.3342889
0.5630076 -0.08875269 0.25413457 0.10108213 0.077567376 0.10375423 0.19595398 -0.1352401
-0.15159065 0.53984445 0.37579623 -0.22846967 0.124667205 0.1946833 -0.12595338 0.2177289
-0.09573728 -0.019043947 0.18438278 0.002054424 0.7244275 -0.29983562 -0.18922377 0.27177644
0.088521376 0.008241365 0.059936017 0.15817903 -0.05011112 0.03292703 0.118701205 -0.1095298
-0.15106119 0.49161187 0.3034467 0.15753816 -0.2809814 0.26607615 -0.11881684 -0.15453114
-0.16402687 -0.07332946 -0.22565101 -0.1612444 -0.19981651 -0.22435106 0.07087228 0.091887765
-0.047036674 -0.13351607 -0.29600254 -0.02168007 0.052791823 0.44929665 -0.06077322 0.18951866
0.14763765 -0.2595305 0.07513518 0.15500383 -0.1766432 0.016390879 -0.13351378 0.22438079
0.00072015304 -0.14659129 -0.031278096 0.086680904 -0.24639182 -0.28832108 0.17596482 -0.26677248
-0.08555461 -0.1569817 -0.052914962 0.2867413 0.33931848 0.2164873 0.007397822 -0.02055884
-0.25012293 0.24983554 -0.21026085 0.04755948 0.051557865 -0.27187246 0.31479618 -0.36049148
0.626096 0.04930015 -0.1609728 -0.045831818 -0.075042546 0.13027182 -0.014922085 -0.01650438
0.093184724 0.30106857 -0.0086460365 0.094476156 -0.2590585 -0.20442541 0.0625729 -0.13272014
0.22171095 -0.29355216 -0.09735991 0.04953708 -0.005677855 -0.051929325 0.0048866 0.13490954
-0.20722575 0.013070211 -0.077689506 0.02752782 0.035239086 -0.03156701 0.19260836 0.28559372
0.07425422 0.33156607 0.3093204 -0.09833645 0.22467332 -0.09417533 -0.29033056 0.09478079
0.1499391 -0.24837336 0.24684183 0.5220416 -0.027613064 0.04182172 -0.19018002 0.14348032
0.18806942 0.082413904 0.17379646 -0.24950525 -0.14175026 -0.4749895 0.1639085 0.4946998
00000000: e7c1 50be 6312 ac3c df4d e5bd fd2a 2dbe
00000010: 0b71 febd c0de 913e 0c99 563e 9bcb f43d
00000020: a2d6 0bbe 18bc 9cbe 379e fdbd ff5b 953e
00000030: 2fda 833e af00 fd3e c582 7d3e 427b 1c3e
00000040: 4a56 edbd 5536 883e f66a 2ebd 0a92 18be
00000050: d2da 86be b282 043e 704a 833e b937 993e
00000060: 765f cb3d 6ae9 7c3e 3d39 523d 9076 1c3e
00000070: 58f4 49bd b9d4 a13d 0ef2 a4be 90d5 6dbe
00000080: fa74 283e 8063 093f b05b 933e c9f9 873e
00000090: 766a 863e b888 273e 0490 95bd 0ed2 cebc
000000a0: e643 483e 8b98 1abe cb3f a2be c525 063e
000000b0: 5d3b c5be 15d9 cf3e b56f c3be 1b59 a63e
000000c0: 8095 6c3e 576b a53d ec19 c33e 2ac2 583e
000000d0: 8403 ea3d 0a24 a53c 50ee 7e3e d93c c83e
000000e0: d9e9 eebd fb31 ce3e 8c89 4fbe 1fac c43b
000000f0: 58d5 8c3c 39ec 473e 1c1f 573d 760b e7bc
00000100: 505f 44be 8398 0b3e 5bff 59be 2f79 b83e
00000110: 58ff 0e3e 4152 603e b545 1a3e c24a bdbd
00000120: dcf1 523c a886 33be d9f7 9d3b 446b 7abd
00000130: ab2b 2abe 7f0f febe 9039 ae3e af2f 3ebe
00000140: e62b 04be f166 8dbd 74da 44be b93b 4f3d
00000150: 9300 5f3b f39d e83d 5543 903d 26d2 2f3e
00000160: 2984 023f f253 593e 2dfa f23e ed80 fe3c
00000170: c41b 203e 1648 803e 95cd ca3d ea23 15be
00000180: 5891 2c3e e165 62be 6931 dfbc bb9a 07be
00000190: 4c78 8ebe 4123 933e a683 a03e be47 0d3e
000001a0: a48a 22be aa29 8bbe 8245 8dbe e7bc 68be
000001b0: 12bd 833e 2346 81be ed71 4d3e ea27 ab3e
000001c0: 4421 103f f8c3 b5bd ed1d 823e 2604 cf3d
000001d0: a5db 9e3d 197d d43d 29a8 483e 617c 0abe
000001e0: 943a 1bbe 3f33 0a3f 5d68 c03e f4f3 69be
000001f0: 8551 ff3d 0f5b 473e ecf9 00be 53f4 5e3e
00000200: e811 c4bd 0d02 9cbc d7ce 3c3e 84a3 063b
00000210: 1574 393f 0e84 99be e0c3 41be 4826 8b3e
00000220: b24a b53d ca06 073c 787f 753d aff9 213e
00000230: 5141 4dbd 7ede 063d 9e19 f33d 2951 e0bd
00000240: c9af 1abe 8db4 fb3e 5e5d 9b3e af51 213e
00000250: cbdc 8fbe 223b 883e 3e56 f3bd 693d 1ebe
00000260: a9f6 27be c22d 96bd 0f11 67be 411d 25be
00000270: b39c 4cbe 49bc 65be 7c25 913d a72f bc3d
00000280: 87a9 40bd 70b8 08be a58d 97be 679a b1bc
00000290: 3d3c 583d 360a e63e 57ed 78bd 2e11 423e
000002a0: 532e 173e 2fe1 84be 79e0 993d 53b9 1e3e
000002b0: f4e1 34be 2a46 863c d6b7 08be 14c4 653e
000002c0: a7c8 3c3a 071c 16be 761d 00bd c285 b13d
000002d0: 234e 7cbe d29e 93be 1f30 343e 6796 88be
000002e0: 4137 afbd d0bf 20be 5cbd 58bd c1cf 923e
000002f0: 27bb ad3e d9ae 5d3e 6e69 f23b 036b a8bc
00000300: 1d10 80be e3d4 7f3e 9f4e 57be bbcd 423d
00000310: 572e 533d de32 8bbe f72c a13e 5792 b8be
00000320: d447 203f f4ee 493d 0ed6 24be 25ba 3bbd
00000330: e8af 99bd fa65 053e c37b 74bc 3234 87bc
00000340: a2d7 be3d a925 9a3e 1ba8 0dbc b77c c13d
00000350: 51a3 84be e554 51be 3826 803d cae7 07be
00000360: 3208 633e 784c 96be a264 c7bd 65e7 4a3d
00000370: 4d0d babb d8b3 54bd c61f a03b ba25 0a3e
00000380: fd32 54be 7024 563c ad1b 9fbd 0682 e13c
00000390: dc56 103d 694c 01bd 203b 453e 5739 923e
000003a0: 9912 983d 07c3 a93e 3e5f 9e3e 9f64 c9bd
000003b0: c310 663e ffde c0bd 35a6 94be 6e1c c23d
000003c0: a389 193e 9655 7ebe 1bc4 7c3e 85a4 053f
000003d0: cb34 e2bc 404d 2b3d 8dbe 42be 81ec 123e
000003e0: 4595 403e 9fc8 a83d b3f7 313e 4e7e 7fbe
000003f0: fb26 11be d331 f3be a1d7 273e 4b49 fd3e

linear1.bias f4 [256]
-0.33461177 0.28139037 -0.028756227 -0.09176788 -0.17945233 -0.03072558 0.0463019 0.34678522
0.24022926 -0.30633867 0.109869376 -0.054567996 -0.11446422 -0.03726827 -0.29159996 0.14203936
-0.12704942 -0.18736748 0.23598638 0.032616258 -0.3808586 0.1909873 -0.12783 0.18704069
0.13868263 0.07182337 0.13051428 0.053208347 0.28941208 0.042272016 -0.17438084 -0.14804056
0.061510637 0.010046012 0.2080496 0.1737862 -0.22137651 -0.08445194 -0.12307324 0.16755958
-0.033192303 0.06961873 -0.15891679 -0.102535225 0.03360966 0.07835799 0.078725845 -0.32181466
0.19812065 0.10948768 -0.03211307 0.071843676 0.027992215 0.043524504 -0.1667839 0.2763572
-0.14645918 0.25271612 -0.036661703 -0.06715926 -0.25786325 0.056764904 0.014196047 0.2858529
0.26664165 0.23861058 0.09878655 -0.017091207 -0.19616567 0.32672715 0.27973956 0.2633621
-0.13021614 -0.1788657 0.20284618 0.053499553 -0.112702444 0.03655174 -0.07222888 -0.14294186
-0.094917506 -0.28955963 -0.29282156 -0.00621542 -0.011158805 0.011983031 0.12324239 0.09464697
0.08228659 -0.040837802 -0.06397108 0.09960319 0.23315519 0.030242868 0.15022308 0.13723673
0.03822404 -0.18867397 0.12124109 0.16433713 -0.11191497 0.12505984 -0.19733328 -0.061890457
0.17759503 -0.104973435 0.05767207 0.27216253 0.077156104 -0.019026505 0.1702442 0.26111022
-0.16276771 0.29003352 -0.3221324 0.18337907 0.2578671 -0.21954878 0.33650863 -0.14684516
-0.280202 -0.2954141 0.28571326 -0.09575123 0.18137966 -0.13120133 0.011722732 0.056046534
0.2610082 -0.13624012 0.15580498 0.038871717 0.09631984 0.14576289 -0.2591419 0.181106
-0.3197269 0.14642617 0.15468471 0.07136746 0.11789592 -0.23301618 -0.21141951 0.036845732
0.23499359 -0.0006337539 0.13178419 0.16083616 -0.10537399 -0.23095658 -0.010985849 0.19205378
-0.050899204 -0.08705896 -0.13775438 0.3114839 0.17666546 -0.21126385 -0.09860626 0.2009814
0.26530954 0.2089439 -0.10832718 0.267209 0.053767197 0.16165225 -0.27261886 0.26773536
0.2171601 0.11017056 0.013338038 -0.05075486 0.16854411 -0.051626682 -0.045499332 -0.0077223587
-0.054923356 -0.2272227 -0.09740405 -0.069231704 0.17300814 -0.09950992 -0.15774558 -0.01409438
0.1824057 -0.20686145 0.25715113 -0.052932635 0.3319411 0.27354407 0.041106343 0.110528976
0.046718575 -0.19934934 0.11949507 0.06591957 0.19253312 0.013684916 0.09372215 0.19492124
-0.09513478 0.038937904 -0.18651251 0.33995545 -0.15230957 0.28274763 0.034704637 -0.044657122
0.23984979 -0.25033695 -0.0474007 0.0023227248 -0.073162645 0.046323407 0.097318955 0.027489204
-0.12082951 0.26596364 0.19812056 -0.33731693 0.028259866 0.19938765 -0.21895689 -0.055006444
0.34169504 -0.12108059 -0.24173525 0.199061 0.1314325 0.18734266 0.24526492 0.27355793
0.21988311 0.15625618 -0.037439294 0.31920132 0.17506237 0.20324042 0.24303485 0.11364607
0.13111585 0.028601568 -0.21850863 0.31057438 -0.11116922 -0.08873215 -0.10424035 0.29253432
0.05339316 -0.011811977 -0.24363956 0.04201157 0.047031257 -0.106871575 0.08317513 -0.17203735
00000000: 3c52 abbe 6612 903e 2e92 ebbc ccf0 bbbd
00000010: 5ac2 37be 36b4 fbbc 10a7 3d3d d58d b13e
00000020: a9fe 753e 6cd8 9cbe 3203 e13d b182 5fbd
00000030: 386c eabd 9da6 18bd 974c 95be c472 113e
00000040: 3e19 02be 43dd 3fbe 6aa6 713e a098 053d
00000050: e6ff c2be 2d92 433e dee5 02be 9887 3f3e
00000060: d202 0e3e 2218 933d 89a5 053e fff0 593d
00000070: d22d 943e 6c25 2d3d e490 32be f297 17be
00000080: 94f2 7b3d 0798 243c f40a 553e 02f5 313e
00000090: 86b0 62be 24f5 acbd d30d fcbd bd94 2b3e
000000a0: a7f4 07bd 4494 8e3d 15bb 22be fdfd d1bd
000000b0: 48aa 093d 277a a03d 043b a13d e4c4 a4be
000000c0: 24e0 4a3e 143b e03d ff88 03bd c722 933d
000000d0: ee4f e53c c046 323d 66c9 2abe b17e 8d3e
000000e0: 65f9 15be 0264 813e 952a 16bd cb8a 89bd
000000f0: a706 84be 5182 683d 8996 683c 505b 923e
00000100: 4185 883e 5556 743e 9a50 ca3d dc02 8cbc
00000110: a7df 48be c848 a73e 063a 8f3e 66d7 863e
00000120: 6157 05be 9228 37be e9b6 4f3e 5922 5b3d
00000130: 8ad0 e6bd 47b7 153d bcec 93bd 5a5f 12be
00000140: 1c64 c2bd 2941 94be b5ec 95be b9aa cbbb
00000150: 6cd3 36bc 7a54 443c 8266 fc3d 45d6 c13d
00000160: df85 a83d 8a45 27bd 4503 83bd c2fc cb3d
00000170: 3cc0 6e3e e4bf f73c 14d4 193e c987 0c3e
00000180: d090 1c3d c033 41be 404d f83d fe47 283e
00000190: ad33 e5bd b00f 003e bc11 4abe d980 7dbd
000001a0: 79db 353e 50fc d6bd 8c39 6c3d e358 8b3e
000001b0: 0504 9e3d 79dd 9bbc 7f54 2e3e 3db0 853e
000001c0: 94ac 26be 467f 943e 8aee a4be b9c7 3b3e
000001d0: 2807 843e 65d1 60be dc4a ac3e 945e 16be
000001e0: a376 8fbe 8440 97be 0249 923e 3919 c4bd
000001f0: 97bb 393e a459 06be b410 403c 0d91 653d
00000200: dea2 853e 8882 0bbe 578b 1f3e f337 1f3d
00000210: 5643 c53d de42 153e 3fae 84be da73 393e
00000220: 3fb3 a3be bef0 153e ab65 1e3e 1a29 923d
00000230: 6b73 f13d cb9b 6ebe 5b7e 58be 8deb 163d
00000240: 29a2 703e 8122 26ba 6ff2 063e 3cb2 243e
00000250: 52ce d7bd e27f 6cbe fefd 33bc bfa9 443e
00000260: af7b 50bd f84b b2bd 7c0f 0dbe d17a 9f3e
00000270: cae7 343e 8d55 58be 14f2 c9bd 11ce 4d3e
00000280: a7d6 873e 64f5 553e a4da ddbd 9ecf 883e
00000290: fe3a 5c3d 2b88 253e b394 8bbe 9c14 893e
000002a0: 385f 5e3e 1aa1 e13d c987 5a3c 54e4 4fbd
000002b0: d496 2c3e 8076 53bd 825d 3abd d70b fdbb
000002c0: 50f7 60bd 11ad 68be c67b c7bd 5ac9 8dbd
000002d0: 0c29 313e dbcb cbbd 0f88 21be 1dec 66bc
000002e0: 8fc8 3a3e 7dd3 53be 50a9 833e e4cf 58bd
000002f0: 2ff4 a93e f80d 8c3e 205f 283d 045d e23d
00000300: fa5b 3f3d 3c22 4cbe d5b9 f43d d700 873d
00000310: 6727 453e b336 603c 66f1 bf3d 6f99 473e
00000320: 06d6 c2bd 5a7d 1f3d 23fd 3ebe a40e ae3e
00000330: 0af7 1bbe 4cc4 903e 7326 0e3d 63ea 36bd
00000340: 2f9b 753e 2a2c 80be 3d27 42bd db38 183b
00000350: 4cd6 95bd 9dbd 3d3d 294f c73d 0a31 e13c
00000360: 7675 f7bd 632c 883e 1ee0 4a3e ceb4 acbe
00000370: 3c81 e73c 472c 4c3e 3c36 60be 704e 61bd
00000380: a7f2 ae3e 1af9 f7bd 7289 77be a6d6 4b3e
00000390: 3e96 063e c1d6 3f3e ba26 7b3e c90f 8c3e
000003a0: 0a29 613e 9f01 203e f259 19bd 5b6e a33e
000003b0: 8d43 333e 421e 503e 21de 783e 45bf e83d
000003c0: 3c43 063e d64d ea3c bac0 5fbe 9b03 9f3e
000003d0: b0ac e3bd 34b9 b5bd f77b d5bd 0fc7 953e
000003e0: c9b2 5a3d 0687 41bc a67c 79be 5314 2c3d
000003f0: d9a3 403d 7cdf dabd b957 aa3d 8f2a 30be

linear2.weight f4 [3, 256]
-0.0091334395 -0.10178232 -0.049888395 -0.16498546 0.13237378 -0.09539896 0.0959921 0.18309608
-0.16877544 -0.0052140923 -0.08641464 -0.20865755 -0.18547747 0.045913734 0.024166867 -0.13661009
-0.014644267 -0.056343384 -0.07049971 -0.11143059 0.021567438 -0.08795475 -0.057165835 0.094451815
-0.009372736 -0.14877956 0.03452925 -0.13276297 -0.108881645 -0.027120931 -0.10780548 -0.1931479
0.040601768 0.028322387 0.12534027 0.13116583 -0.017040672 -0.3090984 -0.078869894 0.14438394
-0.06375447 -0.07952222 -0.053148326 0.12578589 -0.19509628 -0.25717148 -0.06714073 -0.057912476
-0.118350655 -0.14927618 0.02659267 -0.069404446 -0.032797333 0.028948704 -0.04265713 0.11853225
-0.026038928 -0.04964402 0.034471143 0.03523279 0.018214911 0.043130837 -0.13723184 0.12248639
-0.09970867 -0.05520241 -0.14648151 -0.12104944 0.030225297 0.19356717 -0.034903478 -0.16000818
-0.32468852 -0.05421113 -0.08300607 -0.10979096 -0.12896971 -0.20200005 -0.18180433 -0.12807506
-0.011541162 0.008122324 0.027846823 0.023656009 0.051170927 0.020583991 -0.08950431 -0.07015421
-0.07298394 0.010930686 0.009960106 0.10117329 0.21015112 -0.07246289 -0.059770495 -0.122102745
0.14734577 -0.02704788 -0.13866436 -0.19634247 -0.2270841 0.20863849 -0.12335104 -0.18726322
-0.1445434 -0.14295939 -0.16311255 -0.17470668 -0.18054491 -0.09117172 -0.17384744 -0.08648144
-0.20035005 -0.17608291 0.0008392715 -0.081185974 -0.11071997 0.12242587 -0.08823776 0.14451581
-0.11019288 -0.0132179335 -0.14481384 -0.067178115 -0.19032216 0.16991091 -0.06625818 -0.082267836
-0.0950882 -0.15853648 -0.14134765 -0.013488643 -0.102903344 0.0045696143 0.10655128 -0.08756615
0.014320112 -0.06536292 0.032527246 -0.15988009 0.0014382915 0.0041826847 -0.09944116 -0.0139690405
0.09377035 -0.07127275 -0.1253501 -0.19713402 -0.07019398 0.08322424 0.1039102 0.059374247
0.15780717 -0.0015659935 0.025484934 0.1133734 -0.038099255 -0.0016798377 -0.045514952 -0.090997696
0.14028358 -0.18391235 0.19375649 0.08433152 -0.071187794 0.012470157 0.2551306 -0.06284175
-0.0725394 0.06273735 0.11119074 0.1389494 -0.1682725 -0.076808214 -0.09340787 0.101491064
0.009315478 0.054555207 0.21428773 0.08853634 0.012071834 0.10481356 0.14155884 0.054704275
0.0067075323 0.10359042 0.107076444 -0.14096922 -0.16851923 0.07162011 -0.17943268 0.07604774
-0.0072016777 -0.08301895 0.011687472 0.015866112 -0.01901741 0.04330861 -0.12991993 0.023294901
-0.1399179 -0.0006011653 -0.036542013 0.12071107 -0.12642194 -0.034804862 0.09851243 -0.10769008
-0.11841275 0.10607303 -0.013362154 -0.15771897 -0.08762125 -0.1565143 0.16355292 -0.15294136
-0.15736824 0.04653377 -0.017866429 0.0068065333 -0.12721367 -0.07687892 0.12674868 -0.10117147
-0.15446958 -0.08889417 0.015280034 -0.090822205 0.06557385 0.071178354 -0.06112906 0.022406153
-0.061275825 0.060656115 -0.07698401 -0.14652656 -0.034271646 -0.22785506 -0.23562622 0.114555605
-0.21036214 -0.11255459 -0.039411988 0.12813945 -0.05340231 -0.27177945 -0.14182907 0.052484423
0.032305636 0.05137891 0.045410108 -0.24151616 -0.02908424 -0.049286593 -0.110810995 0.023137502
00000000: 6ca4 15bc 4073 d0bd c657 4cbd f3f1 28be
00000010: fe8c 073e 8860 c3bd 8297 c43d 8a7d 3b3e
00000020: 78d3 2cbe fada aabb 29fa b0bd 53aa 55be
00000030: ceed 3dbe 0a10 3c3d 98f9 c53c 84e3 0bbe
00000040: 82ee 6fbc 52c8 66bd 2762 90bd b935 e4bd
00000050: 32ae b03c 9f21 b4bd b926 6abd f46f c13d
00000060: 1b90 19bc ab59 18be 8b6e 0d3d 04f3 07be
00000070: 57fd debd b72c debc 1fc9 dcbd 90c8 45be
00000080: 0a4e 263d 5a04 e83c 3359 003e 5650 063e
00000090: e198 8bbc 2542 9ebe 8a86 a1bd 62d9 133e
000000a0: b491 82bd 8cdc a2bd 0fb2 59bd 04ce 003e
000000b0: 52c7 47be fbab 83be 1481 89bd a235 6dbd
000000c0: d461 f2bd dbdb 18be dfd8 d93c eb23 8ebd
000000d0: 7f56 06bd d525 ed3c 3eb9 2ebd 09c1 f23d
000000e0: 974f d5bc 8757 4bbd 9d31 0d3d 4250 103d
000000f0: 7037 953c f6a9 303d 8186 0cbe 25da fa3d
00000100: 0f34 ccbd ec1b 62bd 40ff 15be c5e8 f7bd
00000110: 0b9b f73c 7936 463e f3f6 0ebd 2fd9 23be
00000120: 933d a6be 7d0c 5ebd 16ff a9bd 15da e0bd
00000130: a310 04be 1ad9 4ebe ea2a 3abe 1c26 03be
00000140: 2417 3dbc 7f13 053c 051f e43c 3fca c13c
00000150: 9b98 513d c29f a83c 094e b7bd 03ad 8fbd
00000160: 9b78 95bd 9f16 333c b62f 233c f133 cf3d
00000170: db31 573e 6c67 94bd e8d1 74bd 0111 fabd
00000180: cfe1 163e 8493 ddbc 08fe 0dbe 000e 49be
00000190: bc88 68be 54a5 553e 789f fcbd eec1 3fbe
000001a0: 2f03 14be f263 12be fa06 27be 4fe6 32be
000001b0: c4e0 38be 3db8 babd 1005 32be 2e1d b1bd
000001c0: 9028 4dbe 144f 34be 8f02 5c3a d544 a6bd
000001d0: 27c1 e2bd 6aba fa3d 00b6 b4bd f4fb 133e
000001e0: ceac e1bd 0890 58bc 144a 14be ae94 89bd
000001f0: d0e3 42be 20fd 2d3e 5eb2 87bd 0a7c a8bd
00000200: 9abd c2bd 6357 22be 70bd 10be 78ff 5cbc
00000210: fdbe d2bd b4bc 953b 8f37 da3d e255 b3bd
00000220: e79e 6a3c ffdc 85bd 4a3b 053d 9bb7 23be
00000230: 0e85 bc3a e70e 893b cfa7 cbbd 67de 64bc
00000240: ab0a c03d 73f7 91bd c75b 00be 80dd 49be
00000250: ddc1 8fbd 7871 aa3d dfce d43d 6932 733d
00000260: 3498 213e 0642 cdba c8c5 d03c 5030 e83d
00000270: f70d 1cbd 002e dcba e36d 3abd 005d babd
00000280: 80a6 0f3e 8553 3cbe 1a68 463e 01b6 ac3d
00000290: e8ca 91bd a14f 4c3c 7aa0 823e 2db3 80bd
000002a0: 898f 94bd 717c 803d f8b7 e33d c048 0e3e
000002b0: a04f 2cbe a04d 9dbd a04c bfbd 8cda cf3d
000002c0: f29f 183c 4875 5f3d 3e6e 5b3e 8a52 b53d
000002d0: f1c8 453c 7ea8 d63d cdf4 103e 9711 603d
000002e0: dcca db3b 3727 d43d e54a db3d 3c5a 10be
000002f0: 4e90 2cbe 90ad 923d 33bd 37be ebbe 9b3d
00000300: 0dfc ebbb d705 aabd d07c 3f3c a6f9 813c
00000310: 66ca 9bbc 5e64 313d bb09 05be f3d4 be3c
00000320: a346 0fbe 8597 1dba 14ad 15bd 5e37 f73d
00000330: c174 01be 8b8f 0ebd e3c0 c93d 9e8c dcbd
00000340: 6282 f2bd d13c d93d f0ec 5abc 1581 21be
00000350: c572 b3bd 4945 20be 6b7a 273e a99c 1cbe
00000360: 2425 21be 329a 3e3d 9e5c 92bc 5709 df3b
00000370: 4d44 02be b272 9dbd 68ca 013e fd32 cfbd
00000380: 462d 1ebe 260e b6bd 1c59 7a3c fe00 babd
00000390: 954b 863d f5c5 913d 7762 7abd 1c8d b73c
000003a0: 5cfc 7abd 8c72 783d cba9 9dbd 0f0b 16be
000003b0: 6d60 0cbd d652 69be 0048 71be 219c ea3d
000003c0: 2c69 57be 0583 e6bd 776e 21bd fd36 033e
000003d0: 61bc 5abd ad26 8bbe a43b 11be e8f9 563d
000003e0: ea52 043d b172 523d f3ff 393d 0350 77be
000003f0: 1242 eebc bde0 49bd e0f0 e2bd dc8a bd3c

linear2.bias f4 [3]
-0.06559108 -0.06850864 -0.12860458
00000000: 9e54 86bd 424e 8cbd ebb0 03be
